mathmodeling/ACMPM/model.pth (torch_old, 5073 bytes, 20 tensors)

layer1.0.weight f4 [10, 4]
0	0x3a58b281	0.0008266345
1	0x3f2279bf	0.6346702
2	0xbd92e3b5	-0.07172338
3	0x39ca4ef4	0.00038587267
4	0x3a637e02	0.00086781394
5	0x3f11f2e8	0.5701127
6	0xbfe13a2f	-1.7595881
7	0xbb32baca	-0.002727198
8	0x3af9fd54	0.001907269
9	0xbea60099	-0.3242233
10	0x3f64f85c	0.89441466
11	0xbc6d7dfd	-0.01449537
12	0x3af9bbd7	0.0019053173
13	0xbf306b91	-0.68914133
14	0x3f0a7f43	0.54100436
15	0xb93fdb44	-0.00018296862
16	0xba3100e6	-0.0006752148
17	0x3eda41fa	0.4262846
18	0xbf7219b2	-0.9457046
19	0x3b853edc	0.0040663313
20	0xb95215dc	-0.00020035304
21	0x3ebf58da	0.37372476
22	0xbdb42a00	-0.08797073
23	0x39cff114	0.00039661734
24	0x3b1fa805	0.0024361622
25	0x3e6011a7	0.21881734
26	0x3fd9c4a1	1.7013131
27	0xbca0dfc8	-0.019637957
28	0xbb4732be	-0.0030395235
29	0x3ee63874	0.44964945
30	0x3f3ff724	0.7498648
31	0x3d05a2df	0.03262603
32	0x3b6decab	0.0036304395
33	0xbf3cf24c	-0.73807216
34	0x3f057f44	0.52147317
35	0xbb00b104	-0.001963676
36	0xb783f4f0	-1.5730475e-05
37	0xbde11c87	-0.10991769
38	0x3f8fe9dc	1.1243243
39	0xbbc7c96d	-0.00609701

layer1.0.bias f4 [10]
0	0x2df2932c	2.7577572e-11
1	0xb09d1d1a	-1.1431525e-09
2	0xaf4455c1	-1.7856562e-10
3	0x2e91035c	6.594433e-11
4	0xae920a00	-6.641088e-11
5	0xae9c34ea	-7.103458e-11
6	0xaff57e51	-4.4654994e-10
7	0xb052cfe4	-7.6692985e-10
8	0x2ef4b582	1.11280776e-10
9	0x30e78684	1.6845694e-09

layer1.1.weight f4 [10]
0	0x3eed8112	0.46387535
1	0x3ff38105	1.9023749
2	0x3f6d939f	0.92803377
3	0x3ee5f41d	0.44912806
4	0x3f021f65	0.50829154
5	0x3e86a852	0.26300293
6	0x3fa1b28a	1.2632611
7	0x408476d6	4.1395063
8	0x3f1fdaa9	0.62443024
9	0x3f3ac7cb	0.7296111

layer1.1.bias f4 [10]
0	0xbf300335	-0.68754894
1	0x3f11a217	0.56887954
2	0xc0052bb9	-2.0807936
3	0xbf3861e1	-0.7202435
4	0x3fb0fced	1.3827187
5	0xbef7b62b	-0.4838117
6	0xbf916125	-1.1357771
7	0xbda9b43a	-0.082863286
8	0xbe9abad1	-0.30220655
9	0xc0069482	-2.1028142

layer1.1.running_mean f4 [10]
0	0x48f84dbb	508525.84
1	0xc6c56d63	-25270.693
2	0xc63cf6a9	-12093.665
3	0xc8c8febe	-411637.94
4	0x47a31bdd	83511.73
5	0x48889ce5	279783.16
6	0x4920156f	655702.94
7	0x490c5a7d	574887.8
8	0xc8dedf17	-456440.72
9	0x4859c108	222980.12

layer1.1.running_var f4 [10]
0	0x5006d181	9.047508e+09
1	0x4f78da9f	4.175077e+09
2	0x4e9ed750	1.3324554e+09
3	0x4fff6f03	8.5709307e+09
4	0x4f11e8ce	2.4479534e+09
5	0x4f2d2541	2.9048998e+09
6	0x4fc06701	6.455952e+09
7	0x4fd57a8d	7.163157e+09
8	0x50155e7f	1.0023992e+10
9	0x4e3e5faf	7.9848544e+08

layer2.0.weight f4 [10, 10]
0	0x3db97a7b	0.090565644
1	0x3ecfc654	0.40581
2	0xbe594deb	-0.2122113
3	0xbe4d7e8c	-0.20067805
4	0xbca81f25	-0.020522663
5	0x3d864bd5	0.065574326
6	0x3f11f35b	0.57011956
7	0x3e7b13b4	0.24519235
8	0xbec5b154	-0.38611853
9	0x3efea339	0.49733904
10	0x3eb01fd5	0.34399286
11	0xbf11f46e	-0.57013595
12	0x3f33f719	0.70298916
13	0xbe37d105	-0.17950828
14	0xbef5e82b	-0.48028693
15	0x3e87f652	0.26555115
16	0x3f0e9190	0.5569086
17	0xbf984b63	-1.1898006
18	0xbc8755ac	-0.016520344
19	0x3f924532	1.1427367
20	0x3e5c2c60	0.21501303
21	0x3d650f61	0.05592287
22	0xbeaf6ad0	-0.3426118
23	0xbe333266	-0.17499694
24	0x3eaeb725	0.34124103
25	0x3ef37f39	0.47558
26	0x3fe8959a	1.8170655
27	0xbf0aad42	-0.5417062
28	0xbde5491a	-0.11195584
29	0xbdcf8032	-0.10131873
30	0x3e2dce68	0.16973269
31	0xbf137829	-0.57605225
32	0x3e86cc0b	0.26327547
33	0x3bc4ea75	0.006009395
34	0x3c8b33aa	0.016992409
35	0xbe49a016	-0.19689974
36	0x3fcf4ae0	1.6194725
37	0x3f36ebaf	0.71453375
38	0x3eba0fcb	0.36340174
39	0x3eeb9ff6	0.46020478
40	0x3ea186b9	0.31548098
41	0x3f0c093d	0.54701596
42	0x3d1004f1	0.035160962
43	0xbd393ad7	-0.04522213
44	0x3d5beddf	0.05369365
45	0xbd7ff4ab	-0.062489193
46	0x3f3b7a9c	0.7323396
47	0xbed85a9b	-0.42256626
48	0x3e84a10e	0.25904125
49	0x3f87b302	1.0601504
50	0xbf005777	-0.5013346
51	0xbe97497e	-0.29548258
52	0x3e9daa0e	0.30793804
53	0x3ea77fdd	0.3271474
54	0xbe5d0e07	-0.21587382
55	0xbe6ea693	-0.2330573
56	0x3ea1a726	0.31572837
57	0x3fa71c0f	1.3055438
58	0x3e2d4181	0.16919519
59	0x3e824327	0.25441858
60	0xbf83a359	-1.0284225
61	0xbf150328	-0.5820794
62	0x3e2996c7	0.16561423
63	0x3f486c9b	0.7829072
64	0xbf4040a6	-0.75098646
65	0xbefb89e1	-0.4912863
66	0x3f49af3a	0.78783
67	0x3e98d23b	0.29847893
68	0x3fc27019	1.519046
69	0xbe9da4e6	-0.3078987
70	0xbf0cad2a	-0.5495173
71	0x3e9e0d5d	0.3086957
72	0x3f0860fb	0.5327298
73	0x3f3e3498	0.74299
74	0xbf219c23	-0.6312887
75	0xbf060a95	-0.52359897
76	0x3e89debc	0.26927745
77	0x3fac0566	1.3439147
78	0x3ec285a9	0.379926
79	0x3ef0e863	0.47052297
80	0x3ebe3b00	0.37154388
81	0xbf13c992	-0.57729447
82	0xbfc8bd87	-1.5682839
83	0xbf129790	-0.57262516
84	0x3f874dca	1.0570614
85	0x3dbf57fa	0.09342952
86	0xbe38be6c	-0.1804139
87	0x3f46d960	0.7767544
88	0xbed8e24b	-0.42360148
89	0xbef44d93	-0.47715434
90	0xbe023952	-0.12717178
91	0x3f1b6d08	0.60713243
92	0x3f63a761	0.88927275
93	0x3ef47ba8	0.47750592
94	0xbed5865f	-0.4170408
95	0xbebcc695	-0.36870256
96	0x3d6512fa	0.0559263
97	0x3ddce3ea	0.10785659
98	0x3f2742f8	0.6533656
99	0x3f770990	0.96498966

layer2.0.bias f4 [10]
0	0xb33fde7a	-4.4672994e-08
1	0xb929de7f	-0.00016199982
2	0x38f24a8b	0.00011553344
3	0x37e8628a	2.7702441e-05
4	0x38c1c2c4	9.239235e-05
5	0x3733125c	1.0673506e-05
6	0x39414903	0.00018433113
7	0x3826c6a3	3.976248e-05
8	0x38a49c2b	7.849218e-05
9	0x395394c8	0.00020177953

layer2.1.weight f4 [10]
0	0x3ba8b447	0.005148444
1	0x407f6b33	3.990918
2	0x40151493	2.3293808
3	0x3f3a0ad6	0.72672784
4	0x3f658fcd	0.8967255
5	0x40404ced	3.0046952
6	0x3fc40856	1.5315044
7	0x3fec2c9e	1.8451116
8	0x402014af	2.5012624
9	0x3fc217d3	1.516352

layer2.1.bias f4 [10]
0	0xbf4f055e	-0.80867565
1	0xc0084832	-2.1294065
2	0xbf7b2f57	-0.9811911
3	0xbf93ed14	-1.1556726
4	0xc011430d	-2.2697175
5	0xc04c815a	-3.195395
6	0x3fc610dc	1.5473895
7	0xbfd78b9c	-1.683948
8	0x3fe30afd	1.7737728
9	0xc0672791	-3.61179

layer2.1.running_mean f4 [10]
0	0x3ebf3740	0.3734684
1	0xbf3c382b	-0.73523206
2	0x3f2ae6d4	0.66758466
3	0x3f3d402a	0.7392603
4	0x3f337eb4	0.7011521
5	0x3ec6269e	0.38701338
6	0xbe3bc7a2	-0.18337873
7	0x3f15b08f	0.5847253
8	0x3ea2b137	0.3177583
9	0x3f1dfd27	0.61714405

layer2.1.running_var f4 [10]
0	0x3e1e66cc	0.15468901
1	0x3ec94ff6	0.39318818
2	0x3db49f7a	0.0881948
3	0x3e73dc57	0.23814522
4	0x3c8ddf71	0.01731846
5	0x3e15056a	0.14552847
6	0x3e600efa	0.21880713
7	0x3e0dca96	0.13846812
8	0x3e83eda2	0.25767237
9	0x3c6acd53	0.01433118

layer3.0.weight f4 [10, 10]
0	0xbe1a1740	-0.15047932
1	0x3d7a9857	0.06118044
2	0x3ed79ee7	0.4211342
3	0x3e267d6d	0.16258784
4	0xbce31543	-0.0277201
5	0x3f81501c	1.0102572
6	0x3f2cbd14	0.6747601
7	0x3e05583b	0.13021939
8	0xbf8f99c9	-1.1218807
9	0xbfebe42e	-1.842901
10	0x3e05c4c1	0.13063337
11	0xbf4d40f2	-0.80177224
12	0x3ea1c98c	0.3159908
13	0x3f3edc18	0.74554586
14	0x3de9820c	0.114017576
15	0xbf8e2763	-1.110577
16	0x3f81e7b9	1.0148841
17	0x3f80e32d	1.0069329
18	0xbf62db33	-0.8861572
19	0xbf4eea6b	-0.80826443
20	0x3e5e00dd	0.21680017
21	0x3e9bc366	0.30422515
22	0x3f8ba531	1.0909787
23	0x3eee9079	0.465946
24	0xbed60c34	-0.41806185
25	0xbf0b5a9f	-0.5443515
26	0x3e09ba61	0.13450004
27	0xbeed45e9	-0.463424
28	0xbe7d2337	-0.24720465
29	0xbfa78edf	-1.3090476
30	0x3e16739e	0.14692542
31	0x3ecfd16a	0.40589458
32	0xbf14610f	-0.579606
33	0x3f09e89f	0.53870577
34	0x3ebeac9f	0.37241074
35	0xbf3aed42	-0.73018277
36	0xbe426f5a	-0.1898779
37	0x3f73f73e	0.95299137
38	0xbf095a0a	-0.53653014
39	0xbfa5ee67	-1.296338
40	0x3ca91151	0.02063814
41	0xbf8e3367	-1.1109437
42	0xbdc0d0f9	-0.09414858
43	0x3f075e40	0.5287819
44	0xbe55b24c	-0.20868796
45	0x3f042e19	0.5163284
46	0x3f2854e3	0.65754527
47	0xbeaa8e59	-0.33311728
48	0x3f0e61b5	0.5561784
49	0x3f5d07b4	0.8633988
50	0xbe26fa11	-0.1630633
51	0xbf78e635	-0.9722627
52	0x3f1ec44b	0.6201827
53	0xbe8dffd7	-0.27734253
54	0xbf4c3fae	-0.7978467
55	0xbf8c1f62	-1.0947077
56	0xbe94f644	-0.29094136
57	0xbf6d2254	-0.92630506
58	0x3f025b65	0.50920707
59	0xbee73c22	-0.45163065
60	0xbe7421ae	-0.23840973
61	0xbfdb7cb1	-1.7147428
62	0x3d661511	0.056172434
63	0xbeb0b418	-0.345124
64	0xbf202591	-0.6255732
65	0xbf03d369	-0.5149446
66	0x3f1fcd67	0.62422794
67	0xbe1d0a0e	-0.15335867
68	0xbe2cedd4	-0.16887599
69	0x3ed27f9a	0.41112977
70	0x3d589695	0.05287798
71	0xc0073ae7	-2.11297
72	0x3e6ecc44	0.23320109
73	0x3ebb8b37	0.3662965
74	0xbef4ed1e	-0.47837156
75	0x3e8a2290	0.26979494
76	0x3f3b3835	0.7313264
77	0xbf68764e	-0.9080552
78	0x3d59327f	0.053026672
79	0x3d520151	0.051270787
80	0xbb62b5db	-0.0034593258
81	0xbea0fb25	-0.31441608
82	0x3f552b62	0.8326932
83	0x3e4b4d90	0.19853806
84	0xbe8d8f1f	-0.27648255
85	0xc01c5508	-2.44269
86	0xbe08e517	-0.13368641
87	0xbfc6be71	-1.5526868
88	0xbecae618	-0.39628673
89	0xc00a13f3	-2.1574676
90	0x3daa176a	0.08305247
91	0x3ffd96f9	1.9811698
92	0x3ed55e27	0.41673395
93	0xbe170d1c	-0.14751095
94	0x3f5c8e7d	0.8615492
95	0xbf07d4b8	-0.5305896
96	0xbf793b77	-0.9735636
97	0x3cde626b	0.027146539
98	0xbf3631cf	-0.7116975
99	0xbf3b8524	-0.7325003

layer3.0.bias f4 [10]
0	0x38194701	3.654417e-05
1	0xb857f5ee	-5.1489034e-05
2	0xb7af2f50	-2.0883657e-05
3	0xb8135a4d	-3.513163e-05
4	0xb5a326b0	-1.2155706e-06
5	0xb6e30568	-6.7657566e-06
6	0xb5c41aa0	-1.4610887e-06
7	0x375ae148	1.3046265e-05
8	0xb79e2358	-1.8851526e-05
9	0xb64fed38	-3.0983483e-06

layer3.1.weight f4 [10]
0	0x40c2e99c	6.091017
1	0x405850a2	3.3799214
2	0x407e7c68	3.9763432
3	0x40aa7a0b	5.327398
4	0x4088ee20	4.279068
5	0x405796ab	3.368571
6	0x4072fc2f	3.796642
7	0x4095eba4	4.6850147
8	0xc0ae55b2	-5.447961
9	0x40901e47	4.503696

layer3.1.bias f4 [10]
0	0x3f729121	0.947527
1	0x4002d964	2.0445185
2	0x40182972	2.3775296
3	0x3ef914a7	0.4864857
4	0x3f2b40da	0.6689583
5	0x3fdef182	1.7417452
6	0x3f362305	0.71147186
7	0x3f136634	0.57577825
8	0xc00870b2	-2.1318784
9	0xbfc3a0fb	-1.5283502

layer3.1.running_mean f4 [10]
0	0xbd611faa	-0.054961838
1	0x3e43d3d9	0.19123782
2	0x3e2e922a	0.17047945
3	0xbe977f30	-0.29589224
4	0x3f28db9a	0.65960085
5	0xbf40ba8e	-0.7528466
6	0xbf17c32f	-0.592822
7	0xbe74b021	-0.23895313
8	0xbfa48069	-1.2851688
9	0xbeeed85b	-0.4664944

layer3.1.running_var f4 [10]
0	0x3dc52c22	0.09627558
1	0x3c6b5df0	0.014365658
2	0x3d83759f	0.06418919
3	0x3d0fe098	0.0351263
4	0x3e05222c	0.13001317
5	0x3e819264	0.25307
6	0x3e29c2ce	0.16578218
7	0x3e9c2cca	0.3050292
8	0x3f29261e	0.6607379
9	0x3ed3b9b4	0.41352618

layer4.0.weight f4 [5, 10]
0	0x4024277d	2.5649102
1	0x3f8fe015	1.124026
2	0xbf643b7d	-0.8915327
3	0x3e126288	0.14295399
4	0x3f7f458c	0.99715495
5	0x3f734ca9	0.9503885
6	0xbe41a133	-0.18909149
7	0x3f056f84	0.52123284
8	0xc009d4a5	-2.1536038
9	0xbcce3913	-0.0251737
10	0xbf0d10b3	-0.55103606
11	0xbf8b4a95	-1.0882136
12	0x402d0878	2.703642
13	0x3ff70c60	1.9300652
14	0xbde0f55c	-0.109842986
15	0x3ebdae6b	0.37047133
16	0x3f37e6d9	0.7183662
17	0x3e0a194f	0.13486217
18	0x3f8aee63	1.0854
19	0xbf7ab750	-0.9793596
20	0x3fe48c9e	1.7855413
21	0x3f1cadbb	0.6120259
22	0x3eac6e64	0.3367797
23	0x3ff2eff8	1.8979483
24	0xbcd4c7fa	-0.025974263
25	0x4027832f	2.6173818
26	0xb948446c	-0.00019098975
27	0x3efe2582	0.4963799
28	0xbdf616ce	-0.120160684
29	0xbf0ba860	-0.54553795
30	0x407cd29a	3.950354
31	0x406487b5	3.570783
32	0x4022ed7f	2.5457456
33	0x400d3b03	2.2067268
34	0x4024c52c	2.5745344
35	0x3f99b3f6	1.2008045
36	0x402488f8	2.57086
37	0x40129b16	2.2907157
38	0xc0ff5e0b	-7.98023
39	0xc0d05067	-6.5098147
40	0xbdf2cb73	-0.11855211
41	0xbec48b78	-0.38387656
42	0x3f06652b	0.5249812
43	0x3f1b1035	0.60571605
44	0x3f8becd2	1.0931647
45	0x3e65243f	0.22377108
46	0x3f161463	0.5862486
47	0x3fb6f420	1.4293251
48	0x3f265aef	0.64982504
49	0x403732e0	2.8624802

layer4.0.bias f4 [5]
0	0xbec8bc41	-0.39206126
1	0xbef6e8b3	-0.4822441
2	0xbf23fa7c	-0.64054084
3	0xc054b219	-3.3233702
4	0x401540df	2.3320844
