mathmodeling/ACMPM/timegcn/TimeGCN.pth (torch_old, 5552 bytes, 8 tensors)

gcn1.weight f4 [3, 15]
00000000: 57d9 40bf a134 b6bf ac01 96bf fa38 98bf
00000010: 90f4 96bf 4d93 b2bf f006 fdbf 51c6 a6bf
00000020: 62ec b5bf b0b6 97bf dbc8 c5bf 003e f2bf
00000030: 2f1c ccbf 3594 23bf cd38 b4bf 4fa5 52bf
00000040: 762a 05c0 b038 cfbf f68a d4bf c031 d2bf
00000050: 3a2e 04c0 ede3 38c0 7a65 f0bf b857 05c0
00000060: fb9a d3bf a17b 12c0 34af 31c0 95d7 16c0
00000070: 5a97 18bf 03fe 02c0 3be8 afbe 8762 df3f
00000080: 94b0 533f 0d2f 6a3f 5df9 5b3f 3d29 db3f
00000090: 560a 4c40 9978 aa3f 1e9e e13f a9d3 643f
000000a0: c31d 0840 6032 4040 71dc 1340 8c2d 24bf
000000b0: 4eee d33f
-0.75331634 -1.4234811 -1.171926 -1.1892388 -1.1793385 -1.3951203 -1.9767742 -1.3029271
-1.4212763 -1.1852627 -1.5451921 -1.8925171 -1.5946101 -0.6389802 -1.4079834 -0.8228349
-2.0807166 -1.6189175 -1.6604908 -1.6421432 -2.0653214 -2.8889115 -1.8780968 -2.083479
-1.6531671 -2.2887957 -2.7763186 -2.356908 -0.59605944 -2.0467536 -0.34356865 1.7451943
0.8269131 0.91478044 0.85927373 1.712196 3.1881309 1.3318053 1.7626379 0.8938547
2.1268165 3.0030746 2.3103297 -0.64132 1.65571

gcn1.bias f4 [15]
00000000: 1ae0 39bf ba68 443f bca8 1b3e 4254 4e3e
00000010: a7b5 303e 096e 3d3f c737 ef3f 0bbe fd3e
00000020: b9a0 453f 5f1f 493e 3422 873f 89b2 db3f
00000030: 82fb 923f 7928 68bf 52ba 393f
-0.72607577 0.767223 0.15201086 0.2014933 0.17256795 0.73996025 1.8688897 0.49559054
0.7719837 0.19640873 1.0557313 1.716386 1.1483004 -0.90686756 0.7254993

gcn2.weight f4 [15, 30]
00000000: 0e21 c73b b1d7 893a 083e 5dbc 3d90 853c
00000010: 3809 783c 6cb2 4ebc 2388 0d3d ea0d 12bd
00000020: 245b 0dbd c908 0f3d 604e eabc d031 b0bb
00000030: 7adc 073d da62 493c 0a7f 013c be04 4c3c
00000040: 78f2 1cb9 7d4e a2bc 5763 f03c 6c7e 153d
00000050: 475c 843c 9c79 4ebc d9ce fe3b 6a08 213d
00000060: 4a1b ce3c 78c8 8d3c 6762 c63c f8a8 dc3c
00000070: d5de 303c 2029 043d 1969 0d3f e236 a0be
00000080: 27cc 95be 4418 0dbf 804f 173f 3056 dc3e
00000090: 80e7 dfbe 4c84 67be 8eda 6bbe eb1c 01bf
000000a0: 4931 81be 5e18 c23e 9ad0 ccbe 5b95 133f
000000b0: 96b2 103f d84f 133f 7897 e73e 1b25 8cbe
000000c0: dfcb bdbe d3a7 dbbe 9c59 163f a1af de3e
000000d0: 055f 113f 37c7 e2be 9a93 03bf b267 0ebf
000000e0: 72b7 06bf 8800 cabe e247 113f c987 f5be
000000f0: 6d65 8b3e d2e3 33be dbb1 34be aa7d 91be
00000100: 22d8 973e a30d 523e 5def 5fbe bbc9 26be
00000110: 8ee4 36be b664 82be a049 27be c25f 373e
00000120: fb70 4fbe 485a 933e ad79 8f3e df85 923e
00000130: a9c4 5f3e 4906 29be 60ac 43be b4f3 5abe
00000140: b1d0 953e 3be2 523e 882a 8f3e c7a1 61be
00000150: 2d16 86be bede 91be df5e 89be 7589 4dbe
00000160: 62a2 8f3e 9f68 77be df22 973e a1db 40be
00000170: 5140 40be 8324 9dbe a62d a43e 2248 653e
00000180: e59a 73be ad39 2fbe f9ba 3ebe cf8e 8dbe
00000190: 3806 31be 9d0d 483e 64ef 60be f56b 9f3e
000001a0: 4c76 9b3e da9d 9e3e 31ce 723e 7af6 33be
000001b0: 1e24 54be ee51 6ebe 581a a23e 0416 663e
000001c0: 001e 9b3e 42b3 75be ed3b 91be d4be 9dbe
000001d0: 2bd8 94be fb97 5fbe f57d 9b3e c765 86be
000001e0: fecd 8f3e dec4 39be c8e6 39be f57d 96be
000001f0: 0885 9c3e 3989 593e 2457 68be 2018 2abe
00000200: 8f24 3bbe 7331 87be 447b 2bbe c2c2 3d3e
00000210: 9a18 57be dfed 973e 7203 943e 08fd 963e
00000220: 3be9 663e d0c2 2dbe 99f7 4abe e942 63be
00000230: 0659 9a3e 1e3b 5a3e 00a9 933e a33b 6abe
00000240: 9fd6 8abe f8f9 96be 3b42 8ebe 8449 55be
00000250: 1fff 933e 2c42 80be b172 0a3f a7c5 9cbe
00000260: a0a2 92be ecf7 09bf 9350 143f 306d d73e
00000270: fba2 dabe b74a 66be 1470 69be fe57 fcbe
00000280: e4ee 7ebe c9d3 bd3e 4f79 c7be d486 103f
00000290: 26bd 0d3f 9c32 103f 879c e23e b6df 89be
000002a0: be65 b9be 5170 d6be c244 133f 09cf d93e
000002b0: f25b 0e3f 562a ddbe 2f9d 00bf ed30 0bbf
000002c0: 7abb 03bf 9b56 c5be 9a3c 0e3f e2eb efbe
000002d0: 4760 8c3f cf86 f3be a195 c4be d777 80bf
000002e0: 9d90 953f 6676 593f fe83 46bf bd34 61be
000002f0: 6bb2 2bbe 4600 66bf 550f a0be ae2e 403f
00000300: 25be 30bf 34cd 913f a581 8f3f ea55 933f
00000310: d531 673f f7dd c5be cd3f 20bf 7472 42bf
00000320: c3ae 963f 005a 5d3f 7707 923f 0793 4abf
00000330: 53b8 6dbf 4fc3 81bf fe57 74bf 9c4a 2ebf
00000340: f68f 923f 785c 5bbf a29a d63e 0fa0 81be
00000350: 3e1f 7abe 9d0a dbbe c7fc e63e 1ee9 a53e
00000360: e6a6 acbe 2eda 52be 3874 5ebe 8e98 c7be
00000370: e2cf 5ebe a385 913e dfe9 9ebe f1e0 e03e
00000380: 3608 dc3e 9dde df3e 9872 ae3e dcdd 69be
00000390: 077b 94be 9d42 a9be 8eab e43e d228 a73e
000003a0: 1258 dc3e 6593 aebe 9fa9 cbbe b86c dcbe
000003b0: ac88 d0be b28d 9cbe 0037 dc3e 489e bdbe
000003c0: b4a9 0e3f 4392 a0be 2baf 95be 33e2 0dbf
000003d0: f5b4 183f c11d de3e c61d e1be 5403 68be
000003e0: affb 6abe a4d5 01bf a46d 81be dadb c33e
000003f0: e25a cdbe e2dd 143f db02 123f 2199 143f
0.0060769385 0.0010516552 -0.013503559 0.01630413 0.015138917 -0.012615781 0.03455366 -0.0356578
-0.034510747 0.034920488 -0.028601825 -0.005377032 0.033169247 0.012291634 0.007903824 0.0124523025
-0.00014967646 -0.019812817 0.029344244 0.03649752 0.016157283 -0.012602236 0.007776123 0.039314665
0.025159497 0.017307505 0.024216844 0.02693604 0.010795315 0.032265782 0.5523849 -0.31291872
-0.29257318 -0.5511515 0.5910568 0.43034506 -0.43731308 -0.22609061 -0.23032591 -0.5043475
-0.25232914 0.37909216 -0.400029 0.57649773 0.565225 0.57543707 0.4523275 -0.2737206
-0.37069604 -0.42901477 0.58730483 0.4349337 0.56785613 -0.44292614 -0.513971 -0.55626976
-0.52623665 -0.3945353 0.5675031 -0.47955158 0.2722582 -0.17567375 -0.17645971 -0.28416187
0.29657084 0.20513014 -0.21868654 -0.16287892 -0.17860624 -0.2546746 -0.1633668 0.17907622
-0.20257942 0.28779817 0.2802252 0.2861776 0.21852364 -0.16506304 -0.19108725 -0.21382028
0.2926078 0.20594113 0.27962136 -0.2203437 -0.26188794 -0.2849025 -0.26830193 -0.20071967
0.28053576 -0.24161004 0.29518792 -0.18833782 -0.18774535 -0.3069192 0.32066077 0.22390798
-0.23789556 -0.17111845 -0.18626012 -0.27648017 -0.17287529 0.19536443 -0.2196632 0.31137052
0.3036369 0.30979806 0.23711468 -0.17574492 -0.20716903 -0.23273441 0.31660724 0.22469336
0.30296326 -0.23994163 -0.28366032 -0.30809653 -0.29071173 -0.2183532 0.30369535 -0.26249525
0.28086847 -0.18141505 -0.18154442 -0.29392973 0.30570245 0.21243753 -0.22689492 -0.16610765
-0.18275665 -0.26404914 -0.16746241 0.18531325 -0.21005479 0.2967367 0.2890888 0.29489923
0.22549908 -0.16968846 -0.19821014 -0.22193493 0.30146044 0.21311614 0.28839874 -0.22874312
-0.27116868 -0.29487586 -0.27784905 -0.20828825 0.2890558 -0.25050485 0.54081255 -0.30619547
-0.28639698 -0.53893924 0.57935447 0.4207549 -0.4270247 -0.22489439 -0.2279666 -0.49285883
-0.24895817 0.37075642 -0.3895974 0.5645573 0.5536674 0.56327224 0.44260046 -0.2692849
-0.36210436 -0.41882566 0.5752679 0.42540768 0.5560905 -0.43196362 -0.50239843 -0.5437153
-0.5145794 -0.38542637 0.5556122 -0.46859652 1.0966882 -0.47563788 -0.38395408 -1.0036572
1.1684757 0.84946287 -0.77545154 -0.21992774 -0.1676728 -0.8984417 -0.31261697 0.7507123
-0.6904014 1.1390748 1.1211439 1.1510594 0.9031041 -0.38645908 -0.6259735 -0.7595589
1.1772083 0.86465454 1.1408528 -0.79130596 -0.9285938 -1.0137728 -0.95446765 -0.68082595
1.1450183 -0.8568797 0.4191485 -0.25317428 -0.2442598 -0.42781535 0.4511473 0.32404417
-0.33721083 -0.20591041 -0.21724021 -0.38983577 -0.21758988 0.2842227 -0.31037804 0.43921617
0.42975014 0.43724528 0.34071803 -0.22838539 -0.29000112 -0.33058634 0.44662136 0.3264833
0.43035942 -0.34096828 -0.39777848 -0.43051696 -0.40729272 -0.30576855 0.43010712 -0.37034822
0.55727696 -0.3136159 -0.29235205 -0.5542328 0.5965112 0.43382075 -0.43968028 -0.2265752
-0.22947572 -0.50716615 -0.25278962 0.3825367 -0.401084 0.58151066 0.5703561 0.58046156

gcn2.bias f4 [30]
00000000: ea10 c5bf bd04 123f 2c53 0f3f 30f6 fa3f
00000010: 2f07 debf 2f4a 8bbf dbc1 a23f 92e1 7e3e
00000020: 2c2d 7d3e a921 d93f 9831 b33e 0ddc 53bf
00000030: b52f 883f f1f0 d7bf 8e61 d2bf 0ee9 d1bf
00000040: 43bc 8bbf 089a cf3e d834 663f a014 9c3f
00000050: d1f8 d6bf 4c02 8cbf a4e8 cdbf 2fe8 a73f
00000060: 4f08 e13f 3d8e fc3f fdce e63f 3fa9 823f
00000070: d05a c9bf 194b c53f
-1.5395787 0.5703848 0.55986285 1.960638 -1.7345942 -1.0882014 1.271541 0.24890736
0.24724263 1.6963397 0.34998775 -0.82757646 1.0639559 -1.6870404 -1.6436021 -1.6399248
-1.0916828 0.40547204 0.89924383 1.2193794 -1.6794683 -1.0938201 -1.6086621 1.3117732
1.758066 1.9730908 1.8031918 1.02079 -1.5730839 1.5413543

gcn3.weight f4 [30, 15]
00000000: bb43 013f c516 e13e b930 903f 2284 5e3f
00000010: 0111 503f 4fda b53f bf07 193f dfc0 b63d
00000020: 3d5a b03f b58a 593e d1a1 2a3f db5b 0e3f
00000030: 6b2f eebd a489 f93e 2aaa ec3e e732 c7be
00000040: 3e3d 803e 8b73 f6be ef93 93bf 7658 87be
00000050: 5f28 01bf a625 8d3e df7d 873e 2cbb 21bf
00000060: a896 823e b357 32bf 6fbc 733e 95af 01be
00000070: 5f00 37be 1e7f 583b 1870 b1be e7ac ffbc
00000080: 9309 1dbe 360d 94bf 7c7e 34be df2e 19be
00000090: b0e0 59bd 0d9e a93e 4d75 a3be 1e3b 513e
000000a0: 5092 14bf ae4e 9ebd d10b 993d 20e0 a1be
000000b0: af46 f1bd 7633 53bf 401d 15bf f3be 8bbf
000000c0: 31ac 0cc0 a06c 01bf 75f4 5cbf b044 04bf
000000d0: 2ae9 4f3e 63eb b5bf 93e1 133e 332e 9abf
000000e0: c34b 07bf 31d8 a6bd c382 6ebf 1c48 b8be
000000f0: 0bcf 183f 2d02 f33e e528 9d3f c0af 813f
00000100: 23b2 583f d610 ca3f 3bc9 0b3f ce6f c13d
00000110: 594c ce3f 5a01 7b3e 7b0a 5d3f 1e42 183f
00000120: ed60 bbbd f703 043f 74b1 f03e d6e6 c73e
00000130: e8ca be3e 8ae9 473f d431 333f 0e5e 233f
00000140: 1058 7e3f b19d 923e d48c 1d3d ef8b 5f3f
00000150: 63e2 4a3d 7da7 ea3e c7e3 ba3e 606c 12be
00000160: 0b42 773e 088e af3e 049f 11bf 45fc d8be
00000170: 2217 2ebf b873 d5bf 4ac3 dfbe 04a5 26bf
00000180: cc47 cfbe 368e 6d3e fb0a 5dbf 1abe 293e
00000190: 883d 56bf dac3 cbbe 43f1 373b dfe1 30bf
000001a0: 05c0 91be bb73 6ebe 41e1 d93e 6cc2 65be
000001b0: a5c4 54bf 4c9f 93bc a881 93be df62 a53e
000001c0: 2c93 a93e 103f b0be 93e9 9d3e 9e6d cebe
000001d0: e77a 993e f6fd 6abd 88c9 623e 9787 b53d
000001e0: 35f4 81be 5816 9f3e 1ce4 27be 49ce 4dbf
000001f0: 8170 6fbc 6606 2cbe 69c1 e63e f0bb c23e
00000200: b111 81be 756d 953e f829 d8be 7c14 983e
00000210: 10fe 88bb 841c da3d a839 d63d fe49 38bf
00000220: f8ba f1be b6fe 6dbf 7c7f 00c0 3cf9 f4be
00000230: 9481 43bf 48f8 f1be 134b 813e ab0c 97bf
00000240: 1312 073e 1fa1 88bf ca3e e1be cb86 a5bd
00000250: 176e 59bf 6965 a5be c2d5 8fbe 5b02 d63e
00000260: 5c4f abbe a3f7 6bbf 485c d2bd 77ce ccbe
00000270: b8f4 a93e 590a 983e 6c8a f7be 97fe a33e
00000280: 68b6 f7be 02ab b83e 9de5 efbc ad27 a53d
00000290: eee4 af3d 7704 a33e 8a12 b73e 82a7 073f
000002a0: 0c4e 023f 6e3b 0c3f a905 2b3f ad03 ec3e
000002b0: 030b 003e 004c 213f 161a d63d 2f44 7b3e
000002c0: a760 c73e 5f51 32be 37b0 b73e 2702 bb3e
000002d0: 9333 04bf 8066 47be 443e 1dbf a11b c2bf
000002e0: a1f9 d9be daef 1cbf 1c78 6ebe daa3 853e
000002f0: c78d 49bf ee57 433e a545 4fbf 300f 1abe
00000300: 0108 1bbc 18e7 1bbf ba29 79be 79ac 123f
00000310: cab7 193f d40d 963f 06ad 7f3f 0fb6 533f
00000320: 819e b83f 7c58 f43e 89c0 8c3d 90f5 c63f
00000330: 0693 373e 5b5d 453f d491 213f 463c fbbd
00000340: 18b8 003f de83 0b3f 3b9d 0d3f 1412 d73e
00000350: f6c3 993f fb8d 763f d996 553f 7cec bb3f
00000360: 7175 003f dce8 24bb b16c c23f 3139 2f3e
00000370: de84 3b3f a9a8 023f 3cc1 3dbd ab23 f83e
00000380: a620 023f ad9e 073f d1d1 1e3f 2a06 9b3f
00000390: 2d6b 5a3f 1e01 5c3f b0f8 ba3f 258a e63e
000003a0: 3ad8 7a3d 3d15 d13f 79b0 2a3e 4e60 333f
000003b0: 4bf5 f73e 76b3 60bd b615 113f ea51 f93e
000003c0: 0ef8 c23e 72d5 cc3e c514 3e3f faa2 113f
000003d0: 0928 313f bea6 893f 77d0 d03e c884 c33d
000003e0: d588 763f 14e7 133e d16b d43e 3877 d53e
000003f0: cfd5 48be e5c2 be3e 8336 df3e 4709 a1be
0.50493973 0.43962684 1.1264869 0.8692037 0.81275946 1.4207247 0.59777445 0.08923506
1.3777539 0.21244319 0.6665316 0.5560891 -0.11630138 0.48737824 0.46223575 -0.38906023
0.25046724 -0.48135027 -1.1529521 -0.26434678 -0.50452226 0.27567786 0.2646322 -0.63176227
0.25505567 -0.6966507 0.2380235 -0.12664635 -0.17871235 0.0033034752 -0.34655833 -0.031210376
-0.15335684 -1.1566532 -0.17626375 -0.14959286 -0.053192794 0.33128396 -0.3192543 0.20432708
-0.58035755 -0.07729851 0.07472957 -0.31616306 -0.1178106 -0.825004 -0.58247757 -1.0917648
-2.1980097 -0.50556374 -0.8631051 -0.5166731 0.20303789 -1.4212459 0.14441518 -1.2045349
-0.5284998 -0.08146704 -0.93168277 -0.35992515 0.5969092 0.47462597 1.2278105 1.013176
0.84646815 1.5786388 0.5460393 0.09445153 1.611705 0.24512234 0.86344117 0.59475887
-0.091493465 0.5156855 0.47010386 0.390433 0.3726418 0.7809073 0.69997907 0.6381539
0.9935312 0.28635934 0.038464382 0.87322897 0.049532305 0.45830908 0.36501905 -0.14299154
0.24146287 0.3428805 -0.56883264 -0.42379966 -0.6800405 -1.667594 -0.4370368 -0.65095544
-0.40484464 0.2319878 -0.8634488 0.16576424 -0.8368764 -0.3979786 0.0028067387 -0.6909465
-0.28466812 -0.23286335 0.42554668 -0.22437447 -0.83112556 -0.018020295 -0.28809857 0.32301995
0.33120096 -0.34423113 0.30842265 -0.40318006 0.2997658 -0.057371102 0.2214719 0.08863752
-0.25381628 0.31071734 -0.1639561 -0.8039289 -0.014614225 -0.16799316 0.45069435 0.3803401
-0.2520881 0.29185072 -0.4221952 0.29703128 -0.0041806772 0.1064997 0.10460216 -0.71987903
-0.47212958 -0.92966783 -2.007781 -0.478464 -0.76369596 -0.47259736 0.2525259 -1.1800741
0.13190489 -1.067417 -0.43993217 -0.0808235 -0.8493361 -0.32303932 -0.28092772 0.41798672
-0.33458984 -0.9217474 -0.102715075 -0.4000127 0.33194518 0.29695395 -0.48347795 0.32030174
-0.48381352 0.3606797 -0.029284293 0.08064208 0.08588587 0.31839344 0.35756332 0.5298997
0.5090034 0.5477818 0.6680551 0.46096554 0.125042 0.6300659 0.10454194 0.24537729
0.38940927 -0.17413853 0.3587663 0.3652508 -0.51641196 -0.19472694 -0.61423135 -1.5164682
-0.42573264 -0.61303484 -0.23288006 0.2610157 -0.7873196 0.19076511 -0.80965644 -0.15044856
-0.0094623575 -0.60899496 -0.24332324 0.5729442 0.60046065 1.172297 0.9987339 0.82699674
1.4423372 0.47723758 0.06872661 1.554369 0.17927179 0.77095574 0.6311314 -0.122673556
0.50280905 0.5449809 0.5531804 0.4200598 1.2012928 0.96310395 0.834333 1.4681544
0.501792 -0.002516321 1.518942 0.1711166 0.73249614 0.51038605 -0.04632686 0.48464713
0.5083107 0.52976495 0.62038904 1.2111256 0.8531979 0.85939205 1.4607143 0.4502727
0.061241366 1.6334606 0.16668881 0.70068824 0.4842933 -0.054858647 0.56673753 0.48695308
0.38079876 0.40006596 0.7425044 0.5688931 0.69201714 1.0754011 0.40784046 0.095468104
0.9630254 0.14443618 0.41488507 0.4169252 -0.19612812 0.37258068 0.43596277 -0.3145239

gcn3.bias f4 [15]
00000000: 695f 3fbe c4ed 683c 8e07 0c3e 87b1 37bf
00000010: 7094 a93e d567 6c3f f3b7 003d b23f 9e3e
00000020: 6dc6 8e3e 7764 843e b58c 0fbe 13e8 063e
00000030: 7678 9dbe 685d 81be 50ea 493e
-0.1868874 0.014216844 0.13674757 -0.7175526 0.3312106 0.92345935 0.031425428 0.3090797
0.27885762 0.258579 -0.14018519 0.13174467 -0.30755967 -0.25266576 0.1971829

fc.weight f4 [4, 15]
00000000: 32cb fd3f b6de 463f 93c6 6340 2680 0f40
00000010: 8858 c73f ca0c 2040 40ea f93e 5a95 833f
00000020: 8e0a b240 ea8d 993f e679 1840 3bbb 1a3f
00000030: ba28 b43e 58fb 153f 245c a63f 6afc 2a3f
00000040: 75ef 2d3e c959 ff3e 5810 1ec0 3b4c 3bbe
00000050: 4338 b5bf 9b14 a73d bb18 4a3f bb1d 053e
00000060: ec92 413f 767e 593f 0ab6 fd3c 1f2c 863e
00000070: aa02 e03f 5057 f83e 5c01 9c3f 0d2b 9b3e
00000080: c326 09bf f897 b53f ae37 643f 5e29 923e
00000090: aaf0 8d3d 16c4 d23f ff0e 22bf c01d c93f
000000a0: 0779 853f 7e67 573f 186b d23e ea65 7d3e
000000b0: 4a7d c73f 3921 b53e f3b4 8d3f 6277 42bf
000000c0: 328e 73bf a665 c63f d754 9e3f 9606 893f
000000d0: 6470 ba3f 8f88 b9bf e2d6 a23f 1007 b5bd
000000e0: 1546 9e3f f1fe 833e b30a 583e 3f26 9f3f
1.9827635 0.7768358 3.558995 2.2421966 1.5573893 2.5007806 0.4881153 1.0279953
5.5637884 1.1996434 2.38244 0.6044194 0.35187322 0.58586645 1.2996869 0.66791403
0.16985877 0.49873188 -2.4697475 -0.18290798 -1.4157795 0.08158227 0.78943986 0.12999623
0.7561481 0.8495859 0.030970592 0.26205537 1.7500813 0.48504114 1.2187915 0.30306283
-0.5357477 1.4187002 0.8914746 0.28547186 0.06930669 1.6466091 -0.6330413 1.5712204
1.042756 0.8414229 0.4109733 0.24745908 1.558511 0.3537691 1.1070846 -0.75963414
-0.9513885 1.5499771 1.2369641 1.0705135 1.4565549 -1.4494799 1.2721827 -0.08839238
1.2365137 0.25780442 0.21097831 1.2433547

fc.bias f4 [4]
00000000: b97f 483f 5e19 423f 346f c93f 041f a63f
0.7831989 0.7581996 1.5737062 1.2978215
