mathmodeling/ACMPM/timegcn/TimeGCNeva.pth (torch_old, 10412 bytes, 8 tensors)

gcn1.weight f4 [3, 10]
000000 ce 1a ab bf e2 9e df bf 18 21 ad bf 64 2e 0a c0
       -1.3367555 -1.7470362 -1.3525724 -2.1590815
000010 fe 3c e8 3f 67 54 e5 3f 78 89 d0 3f 78 d4 be 3f
       1.8143613 1.7916383 1.6291952 1.490859
000020 ed e6 ca bf a6 f8 f5 3f 60 4d 1a c0 9b 29 1e c0
       -1.5851723 1.9216506 -2.4109726 -2.4712894
000030 89 a8 0f c0 41 1d 2f c0 bb 11 21 40 f8 93 1f 40
       -2.2446616 -2.7361605 2.5167072 2.4934063
000040 cc 9a 18 40 86 56 13 40 ac 2f 30 c0 2c 66 25 40
       2.384448 2.302156 -2.7529097 2.584361
000050 29 db 8c 40 35 9b 0d 40 ac cb 27 40 dc a6 1a 40
       4.401753 2.212598 2.6218061 2.4164343
000060 2e 41 18 c0 d3 3b 18 c0 ce 94 16 c0 59 e6 17 c0
       -2.3789783 -2.3786514 -2.3528323 -2.3734343
000070 ce 00 b4 40 24 08 1b c0
       5.625098 -2.4223719

gcn1.bias f4 [10]
000000 a1 d3 ac 3f d1 fe f4 3e e2 4c 45 3f 0b 06 a2 3e
       1.3502084 0.4785066 0.7707044 0.31645235
000010 79 38 2c bf 40 81 2d bf 97 8e 43 bf 3e 13 59 bf
       -0.6727367 -0.67775345 -0.7638945 -0.84794986
000020 a0 15 df 3f 31 9c 1d bf
       1.7428474 -0.61566454

gcn2.weight f4 [10, 40]
000000 33 99 84 be c6 b3 67 3f be 75 9e be a2 10 d3 be
       -0.25898132 0.9050869 -0.30949205 -0.41223627
000010 92 12 88 3f 92 7c 7c 3f 8d 92 99 be 89 98 f7 3e
       1.0630667 0.9862758 -0.29994622 0.48358563
000020 1c 3c 82 be a9 67 76 be bd f4 89 be b7 63 08 bf
       -0.25436485 -0.2406298 -0.26944533 -0.5327715
000030 03 a7 89 bf a8 d1 09 40 e2 5b 82 be 1b d7 ef 3e
       -1.0754093 2.1534214 -0.25460726 0.468438
000040 d4 bd 8e bf 39 78 ed 3e de dc 82 3f f3 5e f0 3e
       -1.1151681 0.46380785 1.0223653 0.4694744
000050 10 35 fa be 8a 7f e5 3e 3e af 3d 40 5f a3 16 3f
       -0.48868608 0.44823867 2.963821 0.58843035
000060 08 8f 3c 3f 92 e4 bf 3f 24 cc 98 bf e3 6b cd be
       0.7365575 1.4991629 -1.1937299 -0.40121374
000070 a6 10 b2 be 2b e0 84 be 7b 33 e1 3e 35 46 ee 3e
       -0.34778327 -0.25952277 0.4398459 0.4653794
000080 08 14 66 40 13 f6 8d be 84 4d 86 3f bc 0b 77 be
       3.5949726 -0.27726802 1.0492406 -0.2412557
000090 0c a6 f0 3e 0e fd d0 3e 51 b7 8b 3f b1 23 85 be
       0.47001684 0.40818065 1.0915319 -0.26003793
0000a0 eb ad 4a bf c2 f7 4e 3f 7d 67 46 bf 04 b8 41 bf
       -0.7917163 0.808468 -0.7750166 -0.7567141
0000b0 4c 06 57 3f 97 83 52 3f 7e 1c 47 bf f2 17 51 3f
       0.83993983 0.8223204 -0.7777785 0.8167716
0000c0 55 b6 4b bf 27 0d 4d bf b4 b8 49 bf 46 1e 41 bf
       -0.7957509 -0.80098194 -0.7879746 -0.7543682
0000d0 23 95 22 bf 2c 2a 40 3f 4e ad 4b bf 5f 81 50 3f
       -0.63508815 0.7506435 -0.79561317 0.81447405
0000e0 2b db 1f bf a6 60 50 3f ee 92 54 3f 2d 8f 50 3f
       -0.624438 0.81397474 0.83036697 0.8146847
0000f0 17 d0 40 bf 99 b7 4f 3f 94 de 87 3f 07 96 51 3f
       -0.7531752 0.8113952 1.06148 0.8186955
000100 e1 75 4d 3f fe 01 10 3f 0c 00 1d bf 30 c4 41 bf
       0.80257994 0.5625304 -0.61328197 -0.75689983
000110 e9 25 44 bf 52 12 4b bf 71 6c 4f 3f 95 63 50 3f
       -0.76620346 -0.7932483 0.81024843 0.8140195
000120 7b 43 a6 3f f9 70 49 bf 57 26 56 3f f9 f2 4c bf
       1.2989343 -0.7868801 0.8365225 -0.80058247
000130 ef 91 50 3f 7e 53 4e 3f 8a 38 58 3f b2 25 4b bf
       0.81472677 0.8059615 0.8446127 -0.79354393
000140 a6 c5 0f bf dc 30 5f 3f 14 3b 14 bf 9d a0 1e bf
       -0.5616096 0.8718393 -0.57902646 -0.61963826
000150 39 1f 74 3f c7 dc 69 3f d4 59 13 bf 2f da 30 3f
       0.9536014 0.91352504 -0.5755894 0.6908292
000160 2b 8f 0f bf 1f 66 0e bf 5b a8 10 bf 85 a6 2c bf
       -0.5607783 -0.55624574 -0.5650689 -0.6744159
000170 de 5e 51 bf f2 a6 9f 3f ba 94 0f bf 47 98 2e 3f
       -0.8178538 1.2472823 -0.56086314 0.68201107
000180 ea e8 52 bf 28 ee 2d 3f bb bf 6e 3f 68 c2 2e 3f
       -0.8238665 0.6794152 0.9326131 0.6826539
000190 32 4e 27 bf 31 8d 2b 3f 45 83 e0 3f bc bf 3d 3f
       -0.6535369 0.67012316 1.754006 0.7412069
0001a0 87 f3 4b 3f fb e4 60 3f f3 89 57 bf 01 52 1d bf
       0.7966847 0.87849396 -0.8419487 -0.61453253
0001b0 8a ef 17 bf f7 f3 0f bf 6c 4a 2a 3f d6 23 2e 3f
       -0.5934988 -0.56231636 0.6651981 0.6802343
0001c0 cd c7 09 40 80 7e 11 bf 98 54 72 3f 81 70 0e bf
       2.1528199 -0.5683365 0.9466033 -0.5564042
0001d0 e1 d5 2e 3f 92 81 25 3f 57 2d 77 3f a3 0b 10 bf
       0.68295103 0.64650834 0.9655356 -0.56267756
0001e0 43 93 72 bf 9e be 43 3f 69 fa 67 bf 54 bc 58 bf
       -0.94755954 0.76462734 -0.9061647 -0.84662366
0001f0 8e 7f 42 3f 8c 20 42 3f 6b d2 69 bf 9e 3c 66 3f
       0.75975883 0.7583091 -0.913367 0.89936244
000200 06 9c 74 bf bd c5 77 bf eb 45 70 bf 64 36 4e bf
       -0.9555057 -0.967861 -0.93856686 -0.80551744
000210 db 85 fe be c8 52 f7 3e 3b 87 74 bf e2 cb 66 3f
       -0.497115 0.48305345 -0.95518845 0.9015485
000220 13 7a f3 be 50 08 67 3f 39 26 42 3f 42 c5 66 3f
       -0.47554073 0.9024706 0.75839573 0.9014474
000230 c5 4a 51 bf fc 91 67 3f 1d 41 33 3f 6b 94 5e 3f
       -0.81754714 0.9045713 0.7002123 0.8694522
000240 79 79 4e 3f 42 43 ca 3e 04 a3 e4 be a6 b5 59 bf
       0.806541 0.3950444 -0.4465562 -0.850428
000250 a7 80 61 bf 83 2f 73 bf ae f3 67 3f 2c e9 66 3f
       -0.8808693 -0.9499437 0.906062 0.9019954
000260 ca 47 5f 3f 8a 3b 6f bf b8 36 42 3f 55 90 77 bf
       0.87218916 -0.93450224 0.75864744 -0.9670461
000270 f4 bc 66 3f 09 77 69 3f 1c 60 42 3f ee 43 73 bf
       0.9013207 0.9119726 0.759279 -0.9502553
000280 9e ac 7a 3f 68 e1 43 bf 37 8c 6a 3f 7f 3a 4e 3f
       0.9791964 -0.7651582 0.916202 0.8055801
000290 38 fe 40 bf 6e 61 42 bf 0a 96 6d 3f ec 7b 6c bf
       -0.7538791 -0.75929916 0.92807066 -0.9237659
0002a0 8d 0e 7e 3f 39 35 81 3f 20 c0 77 3f dc f2 37 3f
       0.9924095 1.0094367 0.96777534 0.7185495
0002b0 c1 b4 00 3f 80 85 f2 be be e2 7d 3f 5a 9f 6e bf
       0.5027581 -0.47367477 0.99174106 -0.932119
0002c0 d0 95 f4 3e 60 c9 6e bf c4 f0 41 bf e6 63 6e bf
       0.47770548 -0.93276024 -0.75758004 -0.9312118
0002d0 ec cd 3e 3f fe e3 70 bf 78 f7 16 bf 7d e9 5f bf
       0.7453296 -0.9409789 -0.5897136 -0.8746565
0002e0 89 5e 4e bf 15 95 09 bf 79 88 e1 3e 31 a1 50 3f
       -0.80613 -0.53743106 0.44049433 0.8149596
0002f0 06 26 5f 3f bb f3 7b 3f 9b e6 71 bf 9e f7 6e bf
       0.87167394 0.9841878 -0.944925 -0.93346584
000300 f9 92 35 bf 35 f9 75 3f 0b 63 41 bf 83 11 81 3f
       -0.7092739 0.96083385 -0.7554175 1.0083469
000310 08 5f 6e bf 3e 10 76 bf 19 12 3f bf 03 0f 7c 3f
       -0.93113756 -0.96118534 -0.7463699 0.98460406
000320 a4 3e 78 3f 65 2f 44 bf 18 6c 68 3f f3 9d 4c 3f
       0.9697058 -0.7663482 0.9078994 0.7992851
000330 c4 00 42 bf 80 fc 42 bf 7f 68 6b 3f aa 10 6b bf
       -0.7578242 -0.76166534 0.91956323 -0.918223
000340 83 9a 7b 3f e5 df 7f 3f 23 65 75 3f e9 db 36 3f
       0.9828264 0.9995101 0.9585745 0.71429306
000350 9a f6 01 3f 3b ff fb be 10 6f 7b 3f d0 25 6d bf
       0.5076691 -0.49218163 0.9821634 -0.9263582
000360 21 6f f7 3e 58 4a 6d bf 3a b5 42 bf 1e eb 6c bf
       0.48326972 -0.92691565 -0.7605778 -0.9254626
000370 5c 88 3d 3f 0f 56 6f bf ae 47 1d bf 37 f1 5e bf
       0.7403619 -0.9349069 -0.614375 -0.87086815
000380 1b 0c 4e bf 59 44 0d bf 2d fa e4 3e 50 f8 4e 3f
       -0.8048722 -0.55182415 0.4472212 0.80847645
000390 69 39 5d 3f 46 88 79 3f 5d 50 70 bf ec 7a 6d bf
       0.86415726 0.9747356 -0.93872625 -0.9276569
0003a0 91 65 3d bf ff a8 73 3f f3 4c 42 bf aa 98 7f 3f
       -0.73983103 0.9517974 -0.75898665 0.9984232
0003b0 c2 e6 6c bf a1 5a 74 bf 44 56 40 bf d0 a3 79 3f
       -0.9253961 -0.9545079 -0.7513163 0.97515583
0003c0 8b bd 65 3f 67 67 47 bf a1 6e 58 3f 59 bb 40 3f
       0.89742345 -0.77892154 0.84543806 0.7528587
0003d0 0b 77 4a bf d7 85 48 bf b5 fe 5a 3f 1c ad 60 bf
       -0.79087895 -0.78329223 0.855449 -0.87764144
0003e0 bc f4 68 3f b1 7d 6c 3f 41 89 63 3f 74 1b 2f 3f
       0.90998435 0.9237929 0.8888131 0.68401265
0003f0 f7 2f 0c 3f 00 14 20 bf 9a cc 68 3f ca 4c 62 bf
       0.5476069 -0.6253052 0.909372 -0.8839842

gcn2.bias f4 [40]
000000 8a c3 0e 3e a5 d7 90 3d 64 2c cd 3d dd 4c bd 3c
       0.1394178 0.07072381 0.100182325 0.02310794
000010 eb 06 ab 3d de 7c a7 3d aa cb dc 3d cf 4e 81 bd
       0.08350929 0.081781134 0.10781033 -0.0631386
000020 08 b0 16 3e 09 1b 20 3e f0 9e 07 3e 73 79 42 bd
       0.14715588 0.15635313 0.13244224 -0.047479104
000030 6a 94 17 be 8e f6 94 3e 0d 35 16 3e d2 a1 93 bd
       -0.14802709 0.29094356 0.14668675 -0.07208599
000040 42 76 20 be 5a 30 97 bd c5 07 ac 3d 67 fd 91 bd
       -0.15670112 -0.07382269 0.083999194 -0.07128411
000050 49 d6 c5 bc 08 f7 a9 bd 56 bc c7 3e 2b c4 85 bc
       -0.02415003 -0.082990706 0.39010876 -0.016328892
000060 c1 64 fe 3c 38 6a 01 3e 6b 9d 31 be 90 8b fa 3c
       0.031053903 0.12638175 -0.17345206 0.030584127
000070 35 df 8f 3d 75 9a 11 3e 1e 67 b3 bd ad 00 97 bd
       0.07024995 0.14219077 -0.087599024 -0.07373176
000080 8a d4 fa 3e b8 36 03 3e 91 6f ac 3d 19 aa 1f 3e
       0.4899028 0.12813842 0.08419717 0.15592231
000090 fd 95 91 bd 9f e2 d7 bd 53 ea a0 3d 2b ff 11 3e
       -0.07108686 -0.105412714 0.07857194 0.14257495

fc1.weight f4 [40, 40]
000000 27 43 2f bf a1 55 9c 3f 56 68 49 bf 19 cc 68 bf
       -0.6846184 1.2213632 -0.7867483 -0.9093643
000010 61 09 95 3f 75 10 99 3f a9 ed 44 bf 39 7c 74 3f
       1.1643487 1.1958147 -0.7692514 0.9550205
000020 2e 74 2c bf 41 72 24 bf b4 17 35 bf 48 2a 6c bf
       -0.67364776 -0.6423684 -0.70739293 -0.92252016
000030 65 ce e2 be cb f3 94 3e e6 a9 2c bf 91 2e 6b 3f
       -0.44298092 0.2909225 -0.67446744 0.9186793
000040 68 63 c9 be a0 24 69 3f 0c 6d 97 3f 1e 01 6c 3f
       -0.39333653 0.9107151 1.1830153 0.92189205
000050 55 d6 6d bf c4 71 5f 3f 82 69 52 3e 13 1a 92 3f
       -0.9290517 0.8728297 0.2054806 1.1414207
000060 da cf 9e 3f d0 26 f6 3e b7 05 a4 be bf c7 66 bf
       1.2407181 0.48076487 -0.3203561 -0.9014854
000070 62 d0 58 bf b8 86 2f bf c6 77 5a 3f ac 65 69 3f
       -0.84692967 -0.6856494 0.8533901 0.91170764
000080 16 df 3a 3e 4d 56 39 bf 8f e1 95 3f 26 a3 24 bf
       0.18249163 -0.7239731 1.170946 -0.64311445
000090 24 2e 6c 3f 8e cf 47 3f 73 1d 92 3f 4e c0 2f bf
       0.92257905 0.7805108 1.1415237 -0.6865281
0000a0 ed a9 0f 3f 71 f1 8a 3d 8b 5a 0c 3f 53 0b 09 3f
       0.5611866 0.067843325 0.5482566 0.53532904
0000b0 98 a2 ed 3d c8 9a b7 3d cc a6 0c 3f 32 5f 3e 3c
       0.11603278 0.08965069 0.5494201 0.011619376
0000c0 bf 68 0d 3f f2 19 0f 3f 76 e8 0d 3f 3f f2 04 3f
       0.55237955 0.55898964 0.5543283 0.5193214
0000d0 60 c2 d7 3e 72 a0 f3 3e e0 89 0d 3f 36 9e 11 3b
       0.42140484 0.47583348 0.55288506 0.0022219545
0000e0 26 c7 d4 3e e7 83 03 3c 97 fc cc 3d 83 d7 8f 3b
       0.41558188 0.008027053 0.10009115 0.0043897047
0000f0 0d 5b 06 3f e0 27 38 b9 8e 2b 15 3f cd de cf 3c
       0.5248268 -0.00017562462 0.58269584 0.025374794
000100 1e 7d 1d 3d ed 15 c7 3e cf b2 ce 3e 1e 7c 09 3f
       0.0384494 0.38883916 0.40370795 0.5370501
000110 f0 f8 0a 3f 20 82 0d 3f 86 de 1c 3a fe 95 0c 3b
       0.542861 0.5527668 0.00059840863 0.0021451707
000120 57 d1 2d 3f 78 a0 0c 3f e0 38 e7 3d f0 4c 0f 3f
       0.6789755 0.54932356 0.11290145 0.5597677
000130 ba 47 5e 3b 6e d5 02 bc bb c9 0a 3e 56 34 0d 3f
       0.0033917264 -0.007985456 0.13553517 0.55157983
000140 ae 9c 87 bf ad 17 04 3f 1b d6 80 bf 02 5c 56 bf
       -1.059469 0.51598626 -1.006534 -0.8373414
000150 37 4a bf 3e ff fa e2 3e 45 81 82 bf bd 50 78 3f
       0.3736131 0.4433212 -1.01957 0.96998197
000160 ed f5 88 bf 67 e9 89 bf 52 d3 86 bf cf 20 23 bf
       -1.070005 -1.0774354 -1.053324 -0.63721937
000170 05 18 2c be 42 00 ca bc 7e e7 88 bf a6 f5 7a 3f
       -0.16806038 -0.024658326 -1.0695646 0.9803108
000180 1a 95 0b be 2f 65 7b 3f 35 a4 d2 3e 04 b6 7a 3f
       -0.13631096 0.9820127 0.41140905 0.97933984
000190 e9 03 35 bf e3 6d 7d 3f 43 0e 3d bd 3e ce 5d 3f
       -0.7070909 0.989958 -0.04615618 0.86642826
0001a0 c1 8f 2f 3f 5d 2d 17 3d 3a fb d6 bd e1 90 5b bf
       0.68578726 0.036908496 -0.104971364 -0.8576794
0001b0 9b 0a 73 bf 8a 4e 88 bf 60 5a 7e 3f 1d 5b 7b 3f
       -0.9493806 -1.0648968 0.9935665 0.981859
0001c0 79 11 4c bd 17 44 86 bf 54 df c5 3e ae cc 89 bf
       -0.04982135 -1.0489529 0.38646948 -1.0765588
0001d0 d8 ad 7a 3f 45 56 80 3f c2 ab af 3e fd 5f 88 bf
       0.97921515 1.0026327 0.34310728 -1.0654293
0001e0 8c a9 90 bd ff ea 4b bd c8 e6 97 bd f4 92 8b bd
       -0.070635885 -0.049784657 -0.07417065 -0.068151385
0001f0 b0 f0 63 bd c7 c8 69 bd 33 98 95 bd 94 67 38 bd
       -0.05564946 -0.05707624 -0.0730442 -0.045020655
000200 a9 1b 90 bd 92 26 9a bd ff 3d 9d bd 8b 66 78 bd
       -0.07036526 -0.07526888 -0.076778404 -0.060644668
000210 33 e6 07 bd 24 11 a3 bd 98 ca 91 bd 34 bf 14 bd
       -0.03317852 -0.07962254 -0.0711872 -0.036315158
000220 23 0b f0 bc 07 57 30 bd 7a 70 6c bd 84 34 1d bd
       -0.029302185 -0.043051746 -0.057724454 -0.03838016
000230 1e 58 89 bd 4d d1 12 bd a7 99 a4 bd 69 3c 43 bd
       -0.0670626 -0.035844136 -0.08037119 -0.047665033
000240 dc 31 2b bd 63 45 a8 bd a5 70 f1 bc a4 3b 91 bd
       -0.041795596 -0.082163595 -0.029472658 -0.07091454
000250 6c 29 8e bd 64 fd 96 bd af 73 16 bd 14 1a 13 bd
       -0.06941494 -0.07372549 -0.03673142 -0.035913542
000260 4b 3e ab bd d0 31 83 bd 16 8e 74 bd 1c 75 9c bd
       -0.08361491 -0.06405985 -0.059705816 -0.07639524
000270 5a 05 1c bd 2a 2d e2 bc f4 62 71 bd bc 97 8c bd
       -0.03809104 -0.027609427 -0.05893226 -0.068648785
000280 d0 de 70 bd 87 b1 2b bd a0 b4 7f bd ef 85 6a bd
       -0.05880624 -0.04191735 -0.062428117 -0.057256635
000290 4f a0 43 bd e5 9c 47 bd 32 4a 7a bd 51 90 18 bd
       -0.047760304 -0.04873361 -0.061105914 -0.037247006
0002a0 b8 df 6f bd 40 dd 80 bd 90 98 84 bd 76 95 4e bd
       -0.058562964 -0.062922 -0.064744115 -0.050435506
0002b0 12 c6 ce bc 25 4e 93 bd fe e8 72 bd eb 39 e6 bc
       -0.025240932 -0.07192639 -0.05930423 -0.02810379
0002c0 b6 ff af bc 9b fe 0e bd 06 87 4a bd 93 76 f6 bc
       -0.021484237 -0.03491078 -0.049445175 -0.030085837
0002d0 11 2d 69 bd 8b 05 de bc a1 6a 96 bd c8 68 24 bd
       -0.056927744 -0.027102252 -0.073445566 -0.04013899
0002e0 34 e1 0e bd f2 76 96 bd 8f 2f b1 bc 27 92 76 bd
       -0.03488274 -0.07346906 -0.021629123 -0.060197975
0002f0 87 be 6c bd 95 a3 7c bd 0b 61 e4 bc d5 02 e2 bc
       -0.05779889 -0.06167944 -0.027878305 -0.027589241
000300 f0 8e 9e bd bc d3 55 bd 9f e1 52 bd 99 b9 83 bd
       -0.07742107 -0.05220388 -0.0514847 -0.06431884
000310 10 c6 f4 bc 53 85 98 bc 2e a3 50 bd 95 e1 68 bd
       -0.0298796 -0.018618261 -0.05093687 -0.056855757
000320 1c da 33 bd ae 26 df bc b0 67 34 bd e9 3d 1e bd
       -0.043909177 -0.027240124 -0.044044197 -0.03863326
000330 2d 20 0c bd 71 b3 06 bd f2 b6 32 bd 8a bb 85 bc
       -0.034210373 -0.032885972 -0.0436315 -0.016324777
000340 b7 c6 39 bd 78 a6 41 bd cb 12 40 bd e7 38 07 bd
       -0.045355525 -0.047277898 -0.046892922 -0.03301325
000350 22 fd 04 bc a2 d3 79 bd dc 7c 3a bd 5e cc 12 bc
       -0.008116992 -0.060992844 -0.04552923 -0.008959858
000360 2d 74 a6 bb 27 ec 54 bc a7 14 0b bd b4 8e 2b bc
       -0.005079767 -0.012995756 -0.033955242 -0.010471035
000370 4a 76 19 bd fd 78 c3 bb bc 99 78 bd 9c 11 b0 bc
       -0.037466325 -0.0059653507 -0.060693488 -0.021492772
000380 b2 b6 a7 bc b7 47 77 bd 5e 64 84 bb 59 10 26 bd
       -0.020472858 -0.060371127 -0.004040285 -0.040542934
000390 08 44 25 bd df 59 3d bd af 61 b6 bb e7 61 06 bc
       -0.040348083 -0.046228286 -0.005565844 -0.008202053
0003a0 07 00 7c bd 5d d6 28 bd 08 25 14 bd 19 70 45 bd
       -0.061523464 -0.041220058 -0.03616813 -0.048202608
0003b0 ac 97 20 bc 53 2f 23 3b 59 dd 18 bd 8f 63 35 bd
       -0.009801786 0.0024900034 -0.03732047 -0.0442844
0003c0 a5 2e 9c bd a1 cb 50 3e 3a eb bd bd 02 92 00 be
       -0.07626084 0.20390178 -0.092733815 -0.12555698
0003d0 0f 20 96 3e 5b 39 79 3e 1c 30 b8 bd 51 de 17 3d
       0.29321334 0.24338286 -0.08993551 0.03707725
0003e0 11 4e 9c bd 08 03 94 bd 60 5c a5 bd d6 25 2a be
       -0.076320775 -0.07227141 -0.0807426 -0.16615996
0003f0 7f 8c fd be 03 42 a3 3f 1e 5d 9c bd 56 38 05 3d
       -0.49521253 1.275452 -0.07634948 0.03252443

fc1.bias f4 [40]
000000 a6 1f 2d 3e 97 b8 11 3f a8 e1 4e bd c1 f6 07 be
       0.16906604 0.56922287 -0.05050817 -0.13277723
000010 5a 7b 00 be c3 50 e4 bd 1b f0 e7 bc ca 63 f9 bd
       -0.12547055 -0.111482166 -0.028312733 -0.121772364
000020 91 aa f2 3d 59 c6 ce be c3 ff f4 bd d3 03 3a bd
       0.11848939 -0.40385702 -0.11962845 -0.045413803
000030 b0 e4 7c 3e 95 e3 c8 bd 4e 5a 0e 3e e5 6c 74 bd
       0.24696612 -0.09809033 0.13901636 -0.059674162
000040 b6 29 e7 bd 97 38 ee bd 07 41 8f 3a 92 61 b2 be
       -0.112872526 -0.116318874 0.0010929414 -0.34840065
000050 12 4d 3f be 0d fb 16 bd 7c 55 2f 3d 44 25 aa 3d
       -0.18681744 -0.036860514 0.042806134 0.08307889
000060 99 5d fb 3d df 0c fd bd 05 a8 e7 bc cb 7a 0f be
       0.12273712 -0.123559706 -0.02827836 -0.14011686
000070 ff 3a 90 bb 49 b9 0a 3d 10 3b 03 be af 5d f3 bd
       -0.004401564 0.033868108 -0.128155 -0.11883103
000080 57 dc 3a 3e 6e 2a 0e 3e f7 32 29 be 5b 3b 77 3e
       0.18248115 0.13883373 -0.16523348 0.24143736
000090 33 12 50 bf 47 cf 22 3e 96 71 1f 3e ba bf a9 bd
       -0.8127777 0.15899383 0.15570673 -0.08288522

fc2.weight f4 [4, 40]
000000 9f cf 58 40 8c 90 2b 3f ce c2 4b bf 11 cf 8d 3c
       3.3876722 0.67017436 -0.79594123 0.017310651
000010 e4 5e a8 3c b8 88 26 3c 3d 29 cd 3f a3 ec 83 40
       0.02055306 0.010164432 1.602821 4.1226363
000020 27 cf b2 3e ae f0 8b 40 5d 9d 99 3c d6 bb 64 be
       0.3492367 4.37313 0.018751794 -0.22337279
000030 ae 6b 5b 3f 10 15 72 40 b9 77 8d 3e f3 aa b0 3f
       0.8571118 3.7825356 0.27630404 1.380217
000040 3f 0f 7d 3d 89 3c 79 3d 54 14 56 3f 6c b9 00 3f
       0.061782118 0.060848746 0.8362477 0.5028293
000050 ee f3 3e 3e 07 c9 b9 3f b2 02 aa 3f 7a 99 8c c0
       0.1864774 1.4514474 1.3282073 -4.393735
000060 cb 22 86 bf f6 2b 8b 3c 18 c7 cb 3f 85 ab 81 3c
       -1.0479368 0.016988736 1.5920134 0.015828857
000070 9c 45 9f 3f 5d f5 cf 3e 52 12 79 3c 40 51 d1 3c
       1.2443118 0.40616885 0.015202122 0.025551438
000080 fa df 94 3e 2e 4c 9f 3e c9 36 9e 3d 0b 15 8b 3f
       0.2907713 0.31112808 0.07725293 1.0865797
000090 50 ae 82 bf cb 6e 3e 40 96 20 46 40 45 3d 70 3c
       -1.0209446 2.9755123 3.095739 0.014663045
0000a0 1b a7 0f c0 64 be 22 be a5 a0 21 bf 46 b3 a3 bd
       -2.2445743 -0.15892941 -0.6313575 -0.07993178
0000b0 99 35 78 bd e9 42 cc bd fc e9 b4 be 91 d4 3b 3f
       -0.06059799 -0.099736996 -0.35334766 0.73371226
0000c0 ee 5f 60 bd 51 3f 3c 3f 44 5b 57 bd 89 d1 35 bf
       -0.054778986 0.73534113 -0.052577272 -0.7102285
0000d0 c6 72 47 40 d4 54 0d 3f 1a 29 fa 3b c2 20 51 3e
       3.1163802 0.5520756 0.007634294 0.20422652
0000e0 5e 6a ab 3d 7a 40 8e 3d 6e 74 0f bb 52 5e 85 be
       0.08369897 0.06945892 -0.0021889466 -0.26048523
0000f0 9e 5e 4f be 48 fc b9 3d 81 be 9c bc e2 cc e6 40
       -0.20250937 0.09081322 -0.019133808 7.21251
000100 a6 06 15 c0 a1 84 95 bd 7b f7 c0 be 6a e5 a5 bd
       -2.3285308 -0.073006876 -0.37688813 -0.08100398
000110 3c f5 59 bf c3 d0 d1 bd 1f 38 af bd 32 76 51 bd
       -0.8513982 -0.10244896 -0.08555626 -0.05113811
000120 39 60 86 bd 04 54 41 bd f4 18 b3 bd 29 3c 8d bd
       -0.06561322 -0.047199264 -0.08744994 -0.0689624
000130 0b d9 f4 3e 4f 6d 08 c0 f8 d0 56 40 6d 7a ef bc
       0.4782184 -2.1316717 3.3565044 -0.029233182
000140 92 07 7c bf 60 10 be 3e f6 0c 33 40 65 db d7 3d
       -0.9844905 0.37121868 2.797666 0.10539893
000150 61 f9 f6 3d bb f5 ae 3d 2c e7 4f 3e d8 18 02 3e
       0.12059284 0.08542963 0.20303029 0.1270479
000160 cb 7e 39 3f 18 37 54 c0 7f 63 fb 3d f2 c7 32 40
       0.72459096 -3.3158627 0.12274837 2.7934537
000170 57 eb 10 40 a9 02 88 3d c2 31 4f 3f a3 1d 2b be
       2.264364 0.066411324 0.809353 -0.16710524
000180 ba 1b b2 3e 50 78 a6 3e e2 af 56 3e 88 04 f6 be
       0.3478678 0.32513666 0.20965531 -0.48050332
000190 78 9c b3 bd 67 11 66 bd cc 26 16 3f 69 d9 47 be
       -0.087700784 -0.05616894 0.5865295 -0.19516529
0001a0 3d 1b 88 3f 58 0e ce 3d 05 e3 72 3e 1d aa bd 3d
       1.0633312 0.100613296 0.23719414 0.09260962
0001b0 0a 4e c4 3e e8 e5 48 3e 92 63 b9 3d 6d 81 04 3e
       0.3834079 0.19618952 0.09052195 0.12939997
0001c0 de 2a 21 3f 95 d0 3b 3f eb 73 42 3e 29 03 d9 3d
       0.62956035 0.73365146 0.18989532 0.10596306
0001d0 d8 66 cb 3f 0c a4 2d bf 3f 1c dd 3f eb 75 2b 3e
       1.589076 -0.6782844 1.7274245 0.16744201
0001e0 8a 8b 0c 40 cc 34 53 3f b6 89 3f 40 38 48 8c bd
       2.1960168 0.82502437 2.9927802 -0.06849712
0001f0 dc 03 82 bd 20 94 ac bd 19 1d 98 3f 39 77 c4 bf
       -0.06348392 -0.0842669 1.188388 -1.5348884
000200 98 31 25 3e 5c e1 5c c0 f7 26 60 bd 75 01 49 40
       0.161322 -3.4512548 -0.05472466 3.140714
000210 04 76 81 40 6e ad 77 bf cf 87 43 3e 27 6a 6c 3d
       4.045656 -0.9674901 0.19094776 0.057718422
000220 80 bb a1 bc 85 d9 df bc 71 b5 74 3d b7 86 b0 be
       -0.019742727 -0.027325401 0.05974335 -0.3447778
000230 a7 80 58 bd e4 f8 1c 3e ec e2 2f be fb 1f 77 c0
       -0.052857067 0.15329319 -0.17176408 -3.861327
000240 a0 cf 4c c0 cc 86 8d bd 42 a6 9c 3f 91 ad 4e bd
       -3.2001724 -0.06910476 1.2238238 -0.050458495
000250 88 cf 24 40 ed 53 94 3e c1 13 91 bd bf 19 8c bd
       2.5751667 0.2897028 -0.07083846 -0.06840848
000260 77 e4 04 3e 8e 3c d4 3d bd 84 1d be 9e 57 ca 3e
       0.12977777 0.103631124 -0.15382667 0.39519972
000270 82 8e b6 3f 3a da c9 3f a1 2c c4 3f bd f7 12 bd
       1.426224 1.5769722 1.532612 -0.035880793

fc2.bias f4 [4]
000000 c5 13 e8 3e f9 b0 e3 bd 70 f9 4c 3f 4f c3 3b 3e
       0.45327583 -0.11117739 0.8006811 0.18336223
